part2-mnist/mnist_model_fully_connected.pt (torch, 905199 bytes, 8 tensors)

weight f4 [32, 1, 3, 3]
00000000: 3539 233f 68dd 1a3d b16f a2be 8b99 613e
00000010: 48a8 09bf 4d5d bdbd 6c5f 02bf 44d1 90be
00000020: dada a0be 1d17 33bf 2498 91be 6a94 da3e
00000030: a2cc 3abe 82dd fe3e abae 2f3e 93ba 10be
00000040: ea10 a63e 9e92 7abd 4bc4 d7be 1808 fcbe
00000050: f751 253d 6f2d 903e 562f a43e 0825 ef3e
00000060: 825c 493e f7ad 7fbd 2130 36bd fc6b 9f3e
00000070: e693 1abf ceca 90bf b709 a13e 52c6 f93c
00000080: a562 dfbe 3448 873e e4bc 7a3f 4233 523f
00000090: c218 033f b8a8 773e a787 133f 290b 32bc
000000a0: dcef 2a3e ec7b e03c 1ea0 3bbf cb34 febe
000000b0: d88c 0ebf ce67 a3be 28d5 92be 03db 81be
000000c0: 3d19 8dbe 41c4 86bc a8e8 a1be edc0 513e
000000d0: ada8 80bd 5f4f 0cbe be47 083e 8ff2 013f
000000e0: 08e2 eb3e 6edb 09bf 85aa b0bd eb13 433e
000000f0: 9ddb b3be 399d 03bf 7471 c2be ec1e f5be
00000100: f076 643e b6df c83e 1051 46be c51f 453f
00000110: f56a 3b3e 8b4c bc3e 2923 4e3e 6260 2fbf
00000120: 6062 10be 103d c7be 5539 d8bd 9da8 9a3d
00000130: 13bc d0bd 87fa a5be 4fd4 423e eea3 553d
00000140: 9e8d bebe ec07 94be 3290 373e f4cb b73e
00000150: 5efe 803e bd54 733e 731a 443e da6e 42be
00000160: d273 31bf f8cd bcbe 3fcd c93d 7c90 fd3d
00000170: 749c ca3e 4433 063f e9b3 b43e f7fb aabe
00000180: d30a d03e d24f f7be 51c4 0abf c237 763e
00000190: 091e f23e 0049 c4be c2d7 cabe 7e2b 86be
000001a0: 192d 9f3e d63a 293e 0471 1b3e 3888 903e
000001b0: 21bf 193d f81d 78be 1936 393d 0111 883e
000001c0: 90d7 92be cf8a b8bc ce1c aabe f0ae 16be
000001d0: 10e4 96be 8a21 03be 8c2f ca3e 8e6c b33c
000001e0: df0e 953e 7269 a53d 9fb2 6cbe dc9d 953e
000001f0: c72d c03d 87af 9cbe 08d4 db3e 6d49 d8be
00000200: 1064 f7bd aade fe3e 2ab7 e1be 37df 31be
00000210: 40c0 eb3e 7873 adbe 72ed 333e 2dd8 38be
00000220: 5bf6 b13c a2dd 4a3e 24a3 3fbe 2b8d 92be
00000230: 1295 9dbe 8c4e cc3d af3b 2dbe 1092 9c3e
00000240: 3fb0 863e e8b8 bf3d 18a9 2bbf 6056 da3e
00000250: 9bc9 cb3e b67b 813e 489d 65be 2488 ab3e
00000260: 8620 bebd e7d6 a23e e286 05be 9dc1 77be
00000270: 100d 72be bd1d 4d3c 38fc 553e f006 85be
00000280: d4e0 43be b5d5 9abe 6421 e4be d87b 94be
00000290: 3981 11bf c8a9 d3be 560d 42be 0ef8 9d3c
000002a0: b724 943e 0b70 2e3f dc70 1b3f 4590 613e
000002b0: 7717 ea3e 9218 60be 81f6 a33e 3a41 8b3e
000002c0: c27b a1be cc5a 8ebe 1e32 e2be f2b7 a9be
000002d0: 79b4 293e 9fe7 b13e 0e60 c3bd 699c d4bd
000002e0: c570 f83e a14b d33d 4241 15bf 0fcf 953c
000002f0: afcd 8a3e 4c05 113e bfcd a63e e30e 95bd
00000300: 433d e93e 80ca 87be e5dc ae3e 57f3 8ebe
00000310: 50bc 14bf ea21 62bd 2431 4b3e de7a b5bc
00000320: 4c6e 62bd b9eb 34be 0e19 813e 33b4 8f3e
00000330: d01e b6be 7d5a 5a3d c200 6e3e daf5 c8be
00000340: 430a c9be 9ff9 d0be b2a8 a13e e305 a33e
00000350: ea6a a63e 93bd f33d abf7 a23d 2dd3 4a3e
00000360: 91ec 233f 60b0 10bd 5320 0dbf 8e0a 033f
00000370: d82b 403d 60b4 3bbf c9e4 153f ee6f 7cbe
00000380: 41d9 f1be 349a d83e dbe4 9f3e 89e7 443e
00000390: 8d5b 7fbe 0339 4ebe 247d babe 40f3 d9bd
000003a0: 81e8 76be d118 05be 9c9b cabe 9826 d7be
000003b0: 28b0 1ebf 99cb 25be bfeb 05bf a756 20bd
000003c0: 5fea c6be e50e 863e 0ce6 f43e 129f 30bd
000003d0: 79e2 dfbd 1e44 5e3e 5fc4 4ebe 6361 f13d
000003e0: 5016 0cbe b40b 17be f543 223e 96fe 6fbe
000003f0: 0337 1a3f d563 033f df58 093f c839 f9be
0.63759166 0.037808806 -0.3172584 0.22031228 -0.537724 -0.09246311 -0.5092685 -0.28284657
-0.3141697 -0.69957143 -0.28436387 0.42691356 -0.18242124 0.49778372 0.17156474 -0.14133672
0.3243478 -0.06117498 -0.42141947 -0.49224925 0.04036137 0.28159663 0.32067364 0.4670794
0.19664195 -0.062421765 -0.044479493 0.31137073 -0.60381925 -1.1311891 0.31452724 0.030490074
-0.43629947 0.26422274 0.97944474 0.82109463 0.5120965 0.24185455 0.57628864 -0.010866919
0.16693062 0.02740284 -0.73291194 -0.49649653 -0.5568366 -0.31915134 -0.2867825 -0.25362405
-0.27558318 -0.016451003 -0.31622815 0.20483752 -0.06282172 -0.13702153 0.13308617 0.5076074
0.46070886 -0.5385045 -0.08626274 0.19050567 -0.3512849 -0.5141178 -0.37977183 -0.47875154
0.22310996 0.39233178 -0.1936686 0.770016 0.1830252 0.36777148 0.201306 -0.68506444
-0.14100027 -0.38913774 -0.1055781 0.07551692 -0.10192122 -0.324177 0.19026302 0.05215829
-0.3721742 -0.28912294 0.179261 0.3589779 0.25194067 0.23762794 0.19150715 -0.18987599
-0.6931735 -0.36875892 0.09853601 0.12381074 0.3957249 0.52421975 0.3529351 -0.3339536
0.40633258 -0.48303086 -0.54205805 0.24044707 0.4728854 -0.38336945 -0.39617735 -0.26205057
0.31089094 0.1652635 0.15179831 0.28228927 0.03753579 -0.24230182 0.045217607 0.26575473
-0.28680086 -0.022527127 -0.332251 -0.14715171 -0.29470873 -0.12805763 0.394894 0.021902349
0.29112908 0.08076753 -0.23115014 0.29222 0.09383731 -0.30602667 0.42935205 -0.4224352
-0.12079632 0.49779254 -0.44085056 -0.17370306 0.46045113 -0.33877158 0.17571047 -0.18051215
0.021723917 0.19811109 -0.18714577 -0.28623328 -0.30777794 0.09975919 -0.16917299 0.30580187
0.2630634 0.0936144 -0.6705489 0.42644024 0.3980225 0.25289696 -0.2242328 0.33502305
-0.09283547 0.31804582 -0.13039735 -0.24194951 -0.23637795 0.012519297 0.20896995 -0.25981855
-0.19128734 -0.3024117 -0.44556725 -0.29000735 -0.56837803 -0.4134047 -0.189504 0.01928332
0.2893426 0.68139714 0.60719085 0.2202769 0.45721027 -0.21884373 0.32024005 0.271982
-0.31539732 -0.27803648 -0.4417886 -0.33148152 0.16572751 0.34747025 -0.09539805 -0.10381395
0.48523536 0.103171594 -0.583027 0.01828721 0.2711005 0.14162177 0.32578847 -0.0727823
0.4555455 -0.26521683 0.34152904 -0.2792003 -0.5809984 -0.055208124 0.19842964 -0.022153314
-0.05528097 -0.17668046 0.25214428 0.2806717 -0.35570383 0.053308953 0.23242477 -0.3925007
-0.39265642 -0.40815446 0.31574017 0.3184043 0.32503444 0.11901393 0.07957395 0.1980712
0.64032847 -0.035324454 -0.5512745 0.5118798 0.046916813 -0.73322105 0.58552223 -0.24652073
-0.47236064 0.42305148 0.3122929 0.19228949 -0.24937268 -0.20138936 -0.364236 -0.106420994
-0.2411213 -0.12997748 -0.39571846 -0.42021632 -0.61987543 -0.16190948 -0.52312845 -0.039145138
-0.38850686 0.2618324 0.47831762 -0.04312045 -0.10931868 0.21705672 -0.20192097 0.11786153
-0.13680387 -0.14750558 0.15846236 -0.2343696 0.6024019 0.51324207 0.5365123 -0.48676896

bias f4 [32]
00000000: 8f69 6b3e dc8e 02be f0e8 b9bd bba6 b5be
00000010: 8d40 6bbc a8dd 393e 2224 c1bd f1e7 bdbe
00000020: 62a3 703e 0a9d 67bc 497f 86be 2e10 8bbe
00000030: 3e26 a9be 8d43 62be e078 57be f241 5bbe
00000040: cbe6 21be b3bd 9abe 55a3 38bd e8c5 60bc
00000050: 2ca8 d6be d9b4 efbd f04f 45be 641c 4fbe
00000060: d226 1abd 316c 9fbd 40f2 cb3e 48cc 56be
00000070: d546 48bd 7d26 d1be 4d65 61bd 3a8b 3ebe
0.22989486 -0.12749809 -0.090776324 -0.35478768 -0.014358652 0.18150961 -0.0943072 -0.3709102
0.23499826 -0.014136562 -0.26268986 -0.27160782 -0.3303699 -0.22096081 -0.21042204 -0.21411875
-0.15810697 -0.30222854 -0.04507764 -0.0137190595 -0.4192518 -0.11704416 -0.19268775 -0.20225674
-0.03763468 -0.07784308 0.3983326 -0.20976365 -0.048895676 -0.40849677 -0.05502825 -0.18607798

weight f4 [64, 32, 3, 3]
00000000: bda1 3cbd 9585 9bbd 1ee9 6c39 eae3 8bbb
00000010: fc5c 29bd 22f1 b3bc 405b 133e 66e0 a73d
00000020: 6651 26bd d457 353d 3570 90bd 6673 92bd
00000030: b4b1 3ebd 9303 d0bd b315 533d 45ea 0dbc
00000040: 5f79 91bd cfff 8a3c bf3b 7a3d 1fc6 40bd
00000050: 27ec 11be fe4a c63c e2cc 34be c195 acbd
00000060: a92e 0abd c4b4 efbd 9e91 c73c 7c46 f63d
00000070: 8cf5 b3bd 53ee 6dbd a023 28be fc7e 0bbe
00000080: b100 28be 0f1f 9dbe 4e5a 1dbe c86c e0bc
00000090: f6e5 cabd cb46 03be c51c 61be 1cc1 debd
000000a0: f8f1 23be 58eb 31be 0d82 f03c 667b 25bd
000000b0: c802 c7bd 57f2 82bc fe20 863d c7af 9f3c
000000c0: 7b4b 42bd 90bd 1b3d 4d8a f63c f1d9 52bd
000000d0: d1b2 823c 8af9 323d 3bdd c4bd 00a5 7abd
000000e0: 49e9 b4bd 7f4e 0cbe 34ed c6bd bb66 1cbb
000000f0: bb66 0cbe e597 52bc a375 2dbd 799a 263c
00000100: f0fe fabd 62c8 44be 94a9 1f3e b318 cc3b
00000110: 95c3 7abd 505c 003e 3c9f 31be e0ac ac3d
00000120: 7b5c 433d 0df8 8f3d d120 85bc 6fa1 9cbd
00000130: a6a3 c9bd 175f e73b f3c9 a9bd b4fc c0bd
00000140: f1ac 923c 539a 31be eaaa 8bbd fac1 3abd
00000150: 34f4 7abd 1815 c0bc 0b49 48bd 9f10 a9bc
00000160: 893f 6cbc 4ff7 acbd da40 f7bb 4026 11bd
00000170: ccfa 31be f077 0a3e 0e13 533d df1a 1abe
00000180: 10c1 2d3e 5d81 bc3c a652 90bd c307 8d3d
00000190: 0dd2 37bd 3240 93bd 5c7b 333d d95d e2bd
000001a0: 5136 ab3c 4f64 18be 077f 47bd 9812 233d
000001b0: 69f1 333d f596 1fbd 982f 8f3b 6fab 243d
000001c0: 9c45 09bc eced 253c c705 613d ee8a c3bc
000001d0: 5052 2a3b 103d 073e 3c34 cabd ec9f 2dba
000001e0: d800 2e3e 8c15 5d3a d8c9 8bbc 4b92 0f3e
000001f0: e04b 49bd c43c 36bd 9669 dd3d b17c d63c
00000200: dfb3 a93c c122 b73d 9425 bb3d 7b33 52bc
00000210: f520 aebd b323 5f3d ec91 453c df8f 523d
00000220: e05e cc3c 1bcc 05bd 3bee 48bd aef5 123d
00000230: eb3b b93a 0883 bfbc 4dc2 3dbd 0f30 18bd
00000240: 42da d93d 45f3 e7bd ac6b 0fbe e66a 803d
00000250: 98ae e0bd b1eb f9bd 03a2 be3c 028e 7bbe
00000260: 8114 6bbd 039f 1c3d eea2 843c fcec a73c
00000270: 5077 87bc 6e0e 6a3d 1896 9e3c 66aa 5a3d
00000280: 97c6 07bd 72f0 323d 0338 013d 0a8e 92bd
00000290: 601e 463b 1187 0bbe c582 17be 71b0 333b
000002a0: 91b0 18be 62fe 5dbd f76c 3b3d 8f26 7e3c
000002b0: a3e2 babd 77d5 94bc 787c b23d 76d7 1bbd
000002c0: cb81 73bd c19b fc3d 0d86 d4bc 2ac3 78bd
000002d0: 1a17 adbb 118e 5d3b ca5f 99bd e862 b5bc
000002e0: d8c9 86bc 2386 2bbd f8ad 10be 04c4 f6bc
000002f0: fcdd 953d 6eaa 42bd 21ef 59bd ad91 813c
00000300: d8af fbbc bd04 31bd 304c 6abc 7682 13bd
00000310: db7b 8a3d a03c e3bb 107e ecbc da2f 15bd
00000320: f03c 78bd 06e7 903a 5153 01bd 4de1 1a3d
00000330: 418c 94bd abc7 e1bd 86a7 093c a660 2d3d
00000340: d64d 80bd 8a13 c53c 0dfb a4bd 5cf1 4bbd
00000350: 3d7c 953d 8399 9ebd 3274 1abd 29ed 0d3c
00000360: 6388 d13d a0f4 173c 4abc b23d c1c0 183e
00000370: 4320 393d 5cd5 00be 9415 2a3e 866f cdbc
00000380: 45aa 8ebd ce4c 1f3c c46a 23bd a401 d2bc
00000390: 68c4 89bd 9224 e1bd 844e 183d c405 cd3c
000003a0: 4dc5 75bb 0220 92bd 12dd 693c f14a cfbd
000003b0: 649f c73d 2011 79bd 2d30 4abb 16d2 fdbc
000003c0: 910f 51bd 472d 6f3c 1cbe 5abd 4a44 9a3c
000003d0: 6a9c d43c 951c 6cbd 5e82 1ebd 0148 2e3c
000003e0: e7a5 94bc 64aa ae3c f8b1 fe3c 3f5e 66bd
000003f0: f7ee 7dbd e512 c7bd 2c3b 1dbe 7296 17be
-0.046052683 -0.07593838 0.00022593557 -0.004269113 -0.041348442 -0.021965567 0.14390278 0.081970975
-0.04060497 0.044273213 -0.07052652 -0.07150917 -0.04655619 -0.10156932 0.051534366 -0.008661811
-0.07103228 0.016967682 0.061092135 -0.047063943 -0.14250241 0.024205681 -0.17656282 -0.08427001
-0.033735905 -0.117044 0.024361428 0.120251626 -0.08787069 -0.05808861 -0.1641984 -0.1362266
-0.16406514 -0.30687758 -0.1536648 -0.027395621 -0.09907143 -0.12819974 -0.21983631 -0.108766764
-0.16010273 -0.17374933 0.029358888 -0.040400885 -0.09717327 -0.015984697 0.065492615 0.019492997
-0.047435265 0.038022578 0.030095244 -0.051477376 0.015954407 0.04369501 -0.09612509 -0.061192513
-0.08833558 -0.13701819 -0.09713212 -0.0023864943 -0.13711064 -0.012853597 -0.042348515 0.010168665
-0.12255657 -0.19217065 0.15592033 0.0062285303 -0.061221678 0.12535214 -0.173459 0.08431411
0.047695618 0.07029734 -0.016251 -0.076479785 -0.098456666 0.007060896 -0.08290472 -0.09423199
0.01790473 -0.17344026 -0.06819709 -0.045595147 -0.061268046 -0.023447558 -0.048897784 -0.020637808
-0.014419445 -0.08445608 -0.0075455727 -0.03543687 -0.17380828 0.13522315 0.051531844 -0.15049313
0.16968179 0.023010904 -0.07047014 0.06886246 -0.044878054 -0.07189979 0.043818817 -0.11053056
0.020899924 -0.14882015 -0.048705127 0.039812654 0.0439314 -0.038962323 0.0043696873 0.040202554
-0.008378413 0.010127526 0.05493715 -0.023869958 0.0025989003 0.13206887 -0.09873244 -0.00066232565
0.1699251 0.00084336917 -0.01706402 0.1402065 -0.049144626 -0.044491544 0.108111545 0.026182504
0.020715652 0.08942176 0.09138027 -0.012829657 -0.0850238 0.054477405 0.012058716 0.051406737
0.024947584 -0.032665353 -0.04905532 0.03587883 0.0014132237 -0.02337791 -0.046327878 -0.037155207
0.106373325 -0.11325697 -0.14005917 0.06270389 -0.10970801 -0.12203158 0.023270613 -0.2456589
-0.0573926 0.038237583 0.016190972 0.020498745 -0.016536385 0.057142667 0.01935868 0.05338516
-0.033148374 0.043686338 0.031547558 -0.07155998 0.0030230507 -0.13625742 -0.14795978 0.00274184
-0.14911105 -0.054197676 0.045758214 0.015512123 -0.09125259 -0.018168194 0.08715147 -0.038047276
-0.059449952 0.12334395 -0.025942827 -0.060732998 -0.005282295 0.0033806602 -0.074889734 -0.022141889
-0.016453668 -0.04187597 -0.14128864 -0.030122764 0.07317731 -0.047525816 -0.053206567 0.015816534
-0.030723497 -0.04321741 -0.014300391 -0.03601309 0.06761905 -0.0069347173 -0.028868705 -0.036422588
-0.06060499 0.0011055178 -0.031573597 0.03781252 -0.07253314 -0.11024412 0.008401757 0.0423285
-0.06264846 0.024057169 -0.08055697 -0.049790725 0.07299087 -0.07744124 -0.03770847 0.0086625
0.10231092 0.009274632 0.087273195 0.1491728 0.045196783 -0.1258139 0.16609794 -0.025077593
-0.0696607 0.0097229015 -0.03989674 -0.025635548 -0.06726915 -0.10993303 0.037184253 0.025027163
-0.0037501634 -0.07135011 0.014273899 -0.10121716 0.09747198 -0.060807347 -0.003085147 -0.030983966
-0.051040236 0.014598197 -0.05340396 0.01883139 0.02595349 -0.057644445 -0.038698547 0.010637284
-0.018145515 0.021321483 0.031090721 -0.056242224 -0.061995473 -0.09720401 -0.15354604 -0.14803484

bias f4 [64]
00000000: c702 29bd a506 ef3b 8323 5bbe 0bc6 12bd
00000010: 9c35 96bd 9f08 13be 6398 3dbe b20f 08be
00000020: bf92 f63c ccf6 86bc 96d8 58be 3e12 36bc
00000030: 2816 1fbe 3a96 62bd 3907 ecbc 9b82 1abe
00000040: 532b 4cbd 806d 14be f846 5dbe 8a0b 85be
00000050: 6eba a6bd 57d3 f8bc a15a efbd 756a 78be
00000060: d01b 6cbd 1ce0 5cbe aa56 efbc 9d1a d7bc
00000070: f925 ea3c 4a33 eebc 55bd 50bd 2a4a 18be
00000080: bba6 f83c 2eca 803d 264e 58bd 5368 35be
00000090: 969a 8ebd e91b d2bc 899a 73bd e1d3 2a3c
000000a0: af83 95bd b3e1 75bd 6e24 f0bd d159 2dbe
000000b0: e720 6cbe 009d 4c3d 82be b8bd 84bf 74be
000000c0: e54a 9b3c eab0 9d3d e3a9 2cbd f7bc 84bd
000000d0: 4514 97bd 01cf 92bb 992c 27bd 7039 38bd
000000e0: 18f9 a9bd e88a 64bd 55ac 7dbd 6e45 58bb
000000f0: 3ca0 aabe 9844 99bd 60ad 84bd 03d2 30bd
-0.041262414 0.0072944933 -0.21400265 -0.0358334 -0.07334444 -0.14358757 -0.18515162 -0.13287237
0.03009927 -0.016475104 -0.21176371 -0.011112748 -0.15535796 -0.05531905 -0.028812038 -0.15088885
-0.049846005 -0.14494896 -0.21609104 -0.25985366 -0.081410274 -0.030374212 -0.11687208 -0.2425936
-0.05764371 -0.21569866 -0.02921613 -0.026257807 0.02858256 -0.02907719 -0.05096181 -0.14872041
0.03035294 0.06288563 -0.052808903 -0.17715578 -0.06963079 -0.025648074 -0.059473548 0.010426492
-0.07300507 -0.060029697 -0.117256984 -0.16928793 -0.23059426 0.049954414 -0.090207115 -0.23901182
0.018956611 0.07699759 -0.042154204 -0.06481355 -0.07376913 -0.004480243 -0.040814016 -0.04497665
-0.08299464 -0.055796534 -0.061931927 -0.0033000368 -0.33325374 -0.07483786 -0.06478381 -0.043169033

weight f4 [128, 1600]
00000000: 283c 4a3c 7c49 d0bc 5f96 c6bc 2504 a93c
00000010: 93bd 243d 3006 6db8 7b37 74bd 7391 c6bd
00000020: df67 a83d 762b 293d f988 1abc 056e dbbb
00000030: 5a57 2abd ab11 9a3d 0de1 12bd 2778 e5bb
00000040: bc1b 34bd 6d8f 99bd 3c90 223d 5221 9abc
00000050: d71e 773c 3ea8 073c 0e7a 0fbb 18e4 c9bc
00000060: 246b b9bc d04c be3b 04d5 d7bc d966 223d
00000070: bee2 133c e9f5 b9bc 06c4 983c 1676 ccba
00000080: 2a2a 53bc 2c4e 7e3c aad3 84bb 646b 01bc
00000090: f540 4e3c bcd9 a23c 4ccb 31bd 4e1c 273c
000000a0: 9d40 03bc 51f1 95bc 01a6 3cbc a1b5 64bd
000000b0: 3421 d2bc b8ab f0ba 9062 993c a339 64bc
000000c0: 7969 ba3c 0ad4 2b3c c734 86bb 1891 f838
000000d0: f356 08bd 69d6 f4bb f724 393d b52d 9fbb
000000e0: 5b88 033c 2806 64bd 092b 0ebc ceb6 05bd
000000f0: db2d 493b 7493 47bd 8b7c dbbc 8cc9 17bd
00000100: 4c79 76bd b8b5 d4bc 35e1 213b 03cc f7bc
00000110: d101 44bd db64 bf39 0491 28bb 7b40 10bd
00000120: 8107 59bd ed07 c3bb ec68 fd3b bcbc 91bb
00000130: c904 ad3b 2367 473a c771 f3bc 9716 00bd
00000140: 6c73 a83c 9390 533d 2f8b 073d 9b64 63bc
00000150: 3c13 31bd fd4c c63c ae5d c53b 1a47 5a3c
00000160: 9b5f 51bc 5a95 883c 9dbb 9a3c 3a6d 183c
00000170: 85e8 ec3b d2f0 0f3b ba3d ebbc 3dfb 44bc
00000180: 64e1 09b9 af21 ce3c f757 363c 61a4 cf3b
00000190: a772 94ba 2a79 813c e41e 07bd 0677 53bd
000001a0: 7ba2 d8bc fd04 19bc dc5d 79bc 9ca5 263c
000001b0: bcd0 e83a beb7 8b3d bc30 df3c 88cf e13b
000001c0: 8304 3ebd 0801 af3d 9e86 063e 14e7 f03c
000001d0: d625 013d 2bcf e63b 8486 a2bb ddb5 193d
000001e0: ba34 83bc 5eb5 44bc f00e 3dbd 3df6 51bd
000001f0: d077 85bd ae29 84bc 3f63 8e3b 8d8d 87bc
00000200: 7a20 23bd 3678 22bc 7408 aebc b3a8 263b
00000210: 4699 b23b ddd1 673c 1534 e4bb e465 073c
00000220: d77e a83c 05a0 893d 5431 30bc 3b67 033c
00000230: edb4 8bbc eb2a 933c 8067 02bd c570 40bc
00000240: 68ca 6a3c cc52 d43b d095 e83b 4d51 8bbb
00000250: 3195 1abd 6fed 4cbc 4851 21bc 6aa6 613d
00000260: 9c40 673d 7584 693c 15cd 123d 95fe 2dbb
00000270: 906a ec3c 2e1a 093d 442e 00bd 4c51 66bd
00000280: f283 79bb ff8f 00bd a63f 0bbd e365 963c
00000290: 4a1d eebc 5122 3bbd 6871 ab3c e860 743d
000002a0: f9b7 053c d3f1 1f3d b9ff 303c d948 38bb
000002b0: c06f cebc a8f7 88bc 1d7b 5b3c dd37 2a39
000002c0: 8a13 243d 2d72 423d 4d59 68bc d528 01bd
000002d0: 81e6 013d d66d ca3c 407d 643d 159f 62bd
000002e0: 2f27 d5bd 18f9 473d c624 533b f8aa 313d
000002f0: 3715 93bc 3e78 64bd f8ca 6fbd 8bf5 8ebc
00000300: dc86 86bc bdfe 473c dc80 36bd ef68 6fbd
00000310: ec73 713c fcb6 07ba ed4c 1cba ca81 3cbc
00000320: 3aa5 82bb 1813 6c3c 4a2a 6f39 9270 b83c
00000330: d682 763c 2025 7bbb a9d2 913a 53b7 0fba
00000340: 9131 a13c 3561 a3bc 407e bb3b db38 1738
00000350: 2300 b3bc 6703 abbc 947c 61bc 28bc 873c
00000360: 890a 9f3c 05a8 0fbc d433 963b ec74 5cbc
00000370: 8362 723c 5265 aa3c 6282 02bc 25ab 893c
00000380: 931e bf3c 57f4 54bc d93d 7c3c 9396 d53b
00000390: 6cce 843c afe0 d8bc 3da7 333c c966 2b3b
000003a0: 9080 063c e0b4 083c 2e6e 58bc a4f8 a83c
000003b0: e222 e6bb 7ecb fd3a 0f7b 77bc 9007 86bc
000003c0: 0321 cbbb c47b 90bb 0c8d 9dbc 3570 bb3c
000003d0: 05ae dbbc b062 e6bc d609 10bd 4fc3 d5b7
000003e0: 1baa b23b 710d 713c 39a1 633b a851 cb3c
000003f0: dce7 de3c 6b90 f83c de1f 94ba 0704 32bc
0.012343444 -0.025425665 -0.024241624 0.02063186 0.040219855 -5.6510966e-05 -0.059623223 -0.09695711
0.08222937 0.041301213 -0.009432071 -0.006696465 -0.04158721 0.07522901 -0.035859156 -0.0070028487
-0.043971762 -0.074980594 0.039688334 -0.018814716 0.015083036 0.008279858 -0.0021892819 -0.024644896
-0.022634096 0.0058074966 -0.026346691 0.039648864 0.0090262275 -0.022700267 0.018648159 -0.0015599157
-0.012888471 0.015521567 -0.0040535526 -0.007899139 0.012588729 0.019879214 -0.04340677 0.010199619
-0.0080110105 -0.018303545 -0.011514188 -0.055837277 -0.025650598 -0.0018361723 0.018723756 -0.013929757
0.022755371 0.010487566 -0.004095647 0.00011852587 -0.033286046 -0.0074718487 0.045201268 -0.0048577436
0.008028115 -0.055669934 -0.008677253 -0.03264504 0.0030697498 -0.048724607 -0.026792785 -0.037057444
-0.06017427 -0.025965557 0.0024700884 -0.030248648 -0.047853295 0.00036505502 -0.0025721202 -0.035217743
-0.052985672 -0.0059518726 0.007733455 -0.0044475477 0.0052801115 0.0007606616 -0.02971734 -0.031271543
0.02056285 0.05165155 0.03309172 -0.013878967 -0.043231234 0.024206633 0.0060231304 0.013322616
-0.012779142 0.016672779 0.01888829 0.009303385 0.007229867 0.0021963608 -0.028715957 -0.0120227905
-0.00013149303 0.025162546 0.011129371 0.006336734 -0.0011325673 0.015804846 -0.032988444 -0.05162718
-0.026444664 -0.009339568 -0.015220132 0.01017132 0.0017762403 0.068221554 0.027244918 0.0068911947
-0.04639102 0.085451186 0.1313729 0.029407062 0.031530224 0.0070437393 -0.004959883 0.037526954
-0.016016353 -0.012006132 -0.046156824 -0.05126022 -0.06516993 -0.016133156 0.004345327 -0.016546989
-0.039825894 -0.009916356 -0.021244265 0.0025430142 0.0054504005 0.014149156 -0.0069642165 0.008264039
0.020568294 0.067199744 -0.010753948 0.0080202175 -0.017054046 0.0179648 -0.031836987 -0.011745636
0.014330484 0.0064795967 0.007097937 -0.004251635 -0.037739936 -0.01250778 -0.009846039 0.055090345
0.0564581 0.014252772 0.035840113 -0.0026549448 0.028859407 0.033472233 -0.031294122 -0.056229874
-0.003807303 -0.031387325 -0.033996247 0.01835913 -0.0290667 -0.045687024 0.0209281 0.05966273
0.008161538 0.03904898 0.0108031565 -0.0028119592 -0.02519977 -0.016719654 0.013396052 0.00016233274
0.040057696 0.047472168 -0.014181447 -0.03153308 0.031713966 0.024710577 0.05578351 -0.055327494
-0.10407864 0.04882154 0.0032217964 0.04337594 -0.017954452 -0.055778734 -0.058543175 -0.017451068
-0.016421728 0.01220673 -0.044556484 -0.05844968 0.014737111 -0.0005177108 -0.00059623906 -0.0115055535
-0.0039869817 0.014408849 0.0002280857 0.022514615 0.015045842 -0.0038321689 0.0011125404 -0.00054823345
0.019676955 -0.019943813 0.0057218373 3.6054156e-05 -0.021850651 -0.020875646 -0.013762612 0.016569212
0.019414203 -0.008768086 0.004583815 -0.013455611 0.014793995 0.020800266 -0.007965656 0.01680524
0.023330009 -0.012997708 0.015395605 0.006518194 0.01621171 -0.026474325 0.010965166 0.0026153794
0.008209363 0.008343905 -0.013209863 0.020626374 -0.0070232013 0.0019363014 -0.015105023 -0.016361028
-0.0061990037 -0.0044092853 -0.019232295 0.022880653 -0.026816377 -0.02812323 -0.03516563 -2.5482526e-05
0.005452407 0.014712677 0.0034733547 0.02481921 0.027210169 0.030342301 -0.0011301001 -0.010865218

bias f4 [128]
00000000: 3509 7cbc bf1b f13c 1043 3cbd 977b 15bd
00000010: d7c5 03bc 2103 32bd 8abf f0bc b075 853d
00000020: 3917 65bd 6b92 c73c 08fd 4d3d b5c8 af3c
00000030: c89c b83c 3724 65bc 111d 79bc 2cba 12bd
00000040: 5217 bbbc 7141 1b3d 9ad1 5dbc a767 e7bc
00000050: 1970 7a3d 8d6f 97bc 9765 35bd 7ca9 a63d
00000060: 2794 adbd 9295 413d b9ea b73d d5b6 993d
00000070: d09e a2bc f6e2 333d 0278 50bb 390d bdbc
00000080: 71ad 7f3d 1c32 d13c 3966 1fbd 3c45 b5bd
00000090: caed 823d eece 613d b298 023d c5d7 dc3c
000000a0: a5ff 383d a3e3 723d 05a3 e0bb 2bf4 d33c
000000b0: 6d72 243d 3da1 ca3b 1214 27bd b3c5 88bb
000000c0: 19f6 fcbc d08b 743b b904 3abd 08a9 7b3c
000000d0: 225a 573d c5ae 1a3d 63e5 263c f202 fabc
000000e0: 6a24 a4bd 0f6a 86bd 7e86 8d3c 2c35 4fbd
000000f0: 6d8f a7bc 9b79 0dbc 88a2 c63b 6b20 66bc
00000100: cc64 f03c 74ab 183d 832e 8cbd 55d9 54bd
00000110: d707 e4bd 63d8 ff3a 0736 8c3c cb8b 6b3c
00000120: fafa 0fbd 42c1 09bd 8894 193d 885a 243d
00000130: 67da 1dbd 89bf 693d 6135 3fbd 2b35 423c
00000140: ea01 9b3d 264a a83c dd15 1dbd 1fac 753c
00000150: 9577 d43b 53c7 1dbd e798 0dbd fa34 b3bd
00000160: 43ec 4e3d 81dd ae3c 6302 e23c 52ef cc3c
00000170: 6432 f43c e58a 233c 5471 b73c 15a6 863c
00000180: 4a96 7cbd 8ef7 b23c 9108 9fbc 45c5 adbc
00000190: 6943 353c 908a 563d e754 623c 5e20 d339
000001a0: 2111 bb3d eb5e 59bc 74a2 ffbc 10cd 943c
000001b0: 87d1 a43d 9212 f23d 7fd6 82bd e50a b7bd
000001c0: 2853 d5bc 5778 843b 2e55 14bd fdd4 923d
000001d0: 6e7a f83c 1369 543d 3d43 593c c925 aebc
000001e0: 6073 34bd 8ef2 bd3d 95d1 10bd bbb6 8d3c
000001f0: af54 78bc b776 a83c c754 303c 0597 473d
-0.0153830545 0.029432176 -0.045962393 -0.036494818 -0.008042774 -0.043460015 -0.029388208 0.06516588
-0.05593035 0.02436181 0.050290138 0.02145801 0.022535697 -0.013985685 -0.015204684 -0.03582208
-0.022838268 0.037904207 -0.013538742 -0.028247667 0.06114206 -0.018485809 -0.044286337 0.08137795
-0.084755234 0.047261782 0.08980317 0.075055756 -0.019851118 0.04391762 -0.0031809811 -0.023077594
0.062421266 0.02553659 -0.038915846 -0.08851096 0.06393011 0.055128984 0.031883903 0.026958356
0.045165677 0.059299123 -0.006855371 0.025873264 0.040148187 0.006183772 -0.040790625 -0.004173958
-0.030879067 0.003731478 -0.04541466 0.015360124 0.05257619 0.03776433 0.010186526 -0.030518983
-0.08014758 -0.06563198 0.017276045 -0.050587818 -0.020454133 -0.00863495 0.0060618557 -0.014045815
0.029344939 0.037272885 -0.06844809 -0.051965076 -0.11134308 0.0019519444 0.017115606 0.014376591
-0.03515146 -0.03363157 0.037495166 0.0401254 -0.038538363 0.057067428 -0.046681765 0.011853497
0.075687245 0.02054317 -0.03835093 0.01499465 0.006483982 -0.03852017 -0.034569647 -0.08750339
0.050518285 0.021345856 0.027589029 0.02501646 0.029809184 0.0099818455 0.022392906 0.016436616
-0.061666764 0.021846559 -0.019413264 -0.02121223 0.011063435 0.052378237 0.013814188 0.00040269172
0.091341265 -0.013267259 -0.031205393 0.018164188 0.08047777 0.11819948 -0.06388568 -0.08937625
-0.026040629 0.004042666 -0.036214046 0.071695305 0.030331817 0.05185802 0.01326066 -0.021258252
-0.044055343 0.09274779 -0.035356123 0.017299047 -0.015156909 0.02056442 0.0107624 0.048728008

weight f4 [10, 128]
00000000: 609b 8abe 4b58 87be c37e 9b3e dc5c 98bd
00000010: 9f2b 043f 3ae6 1d3e db3e 82bd 25a7 903e
00000020: b814 53be 399c 03be 70c6 8abc 4480 bcbe
00000030: 50f0 e93d f339 8abe 6143 073e a1ab aebe
00000040: d9b6 643e 0959 ecbd b446 403e 257a 4dbe
00000050: c6e7 013e a082 d23d 8121 2ebe ced3 b13c
00000060: 439c 16be af75 f83d 4042 bb3e 4a42 d1bd
00000070: 82b7 67be c651 01be 5755 0f3e c92f 3f3e
00000080: 9bf1 0cbe 3b6d 32bd 60fc f6bd d825 053e
00000090: 4645 383e 9f03 f13d bd2c 393e ebf1 4fbe
000000a0: 9a54 563e d0bf fd3d aa4b 32be 7cbb 2ebe
000000b0: c8d9 8a3d a4d7 683d 26d4 313e c956 473e
000000c0: b918 42be a694 6f3e 22d3 68be 854f 22be
000000d0: 1ec8 193e b313 013e e317 5dbe 6039 fabc
000000e0: 72a9 143d 8c55 963d 8782 6fbe a766 623e
000000f0: 507e 0dbe 4786 593e 775c 9abe f41e 84be
00000100: c013 aa3e 93f3 58be b32b 93be a8dd efbd
00000110: 78d4 26be 0d63 8ebd bff4 a8be c80f 54be
00000120: 466f 5c3e 67cb 8a3d 8ae2 9f3d 94f1 6c3e
00000130: 0521 f33d 98cd 0ebe 8a6b a1be 2bf8 21be
00000140: 48b3 6abe 0237 05be 1809 7bbc a047 38be
00000150: 54bf 333e 6fa2 413e 03d2 1d3d 1c15 39be
00000160: 7b12 153e a7c1 8d3e 75a4 7f3e 97ad d93d
00000170: a601 a03e 199e 81bd 96d1 67be fe6d 0c3e
00000180: a90f 90be 7432 20be 841b 16be b884 623e
00000190: 8ef7 2fbe 9eb2 1a3e db66 9abe 5aff 9ebe
000001a0: 217b 6c3e c382 aebd 14d1 1e3c 47d4 2e3e
000001b0: 96b9 dbbd ddaf 973c 5cd1 80bd 54d5 30be
000001c0: a6a6 41be 0627 4dbe ac2c acbd c68e 2b3e
000001d0: 8d09 063e 4a75 22be 1011 263e 59bf fbbd
000001e0: cdd7 11be 0f66 b33d f26b 3a3d 84e0 04be
000001f0: 6c1d 913d c092 1ebe 3096 a0be 32db 0f3e
00000200: a1f4 fe3d ceb9 913e eb39 1cbe 9b83 13be
00000210: 9090 17be 5bc6 1bbe 8026 93bd 72cb b23e
00000220: bc06 9abc e664 023e e607 183e 1db9 703e
00000230: 3126 b63d b4ad 16bd 68fc 13be 326a 603d
00000240: 520f 0dbe dca5 923e f5d4 84be 3cc5 dd3d
00000250: 7e89 ca3d 368e b0bc 17b1 a13d fe8a 353e
00000260: d1e2 17be 5000 a63e 99a4 863e 65c1 ac3e
00000270: f4f8 cebd 55d7 393e b9ef fcbd 469a ffbd
00000280: d578 843e 6df6 263e 6e99 49be 4f6f 8fbe
00000290: d853 fe3d e2dc 4f3e 8ffc 05be 76ac 503e
000002a0: 75e8 0e3e 03c4 873e 817f c33d 5116 b8bd
000002b0: 2a33 963e 83a5 073e 38eb 9cbe 3340 80be
000002c0: 64b7 28be feb4 fabc c88a 64be 29f0 133d
000002d0: 92bb 433e 1e3d 893d 6f2b fc3d 9e75 aebd
000002e0: d7a3 72be 8ade bfbe 7702 463e 1283 d2bd
000002f0: 1a8b c43d accf 56be 1f12 5f3e 2f85 2e3e
00000300: 8cb6 65bc 4c3b 8e3e 2950 b7bd 7489 6f3d
00000310: 8159 c3be cbae 563e 3429 803e 6344 4e3e
00000320: 379c 72be 99db 0abe a63c ec3c 49e5 203e
00000330: 5632 5dbe 6d7f 643e b9f9 05bb ba6b 4a3e
00000340: 95fd 213e ad6e 733e 833a 66be 4408 4e3e
00000350: 1155 513d ba05 76be cad0 8bbe a88d 8fbe
00000360: d92b a53d 8147 fdbc 35da 913d 54bd 083b
00000370: 62d3 22be 28b4 763e bd81 923e 90a7 28bd
00000380: 9d04 de3c ff05 323e 8e4b b0bd 3774 1bbe
00000390: 6361 083e a81d 5c3e 2722 40bb 879c fcbb
000003a0: 47ba 7c3e 4126 febd dcb6 7cbe c181 063e
000003b0: 8eb1 573e 7979 3b3e 4ff2 5fbe 5648 12be
000003c0: f017 313e d804 a73d 7e20 26be 8e19 5e3e
000003d0: 5a4b 153e 1650 ae3e c31e 27bc c92f 273e
000003e0: 5b2a 89bd 308d 393e ab76 3bbe 7a47 273e
000003f0: 08cd 0cbd fb3a 823e 3c1e 063e 4fa1 c43d
-0.27071667 -0.2643455 0.3037015 -0.074395865 0.5162906 0.15419856 -0.06359645 0.2825252
-0.20613372 -0.12852563 -0.016940325 -0.3681661 0.11422789 -0.26997337 0.13209297 -0.34115317
0.22335376 -0.115404196 0.18776971 -0.20066126 0.12686071 0.10278821 -0.17004968 0.021707442
-0.14708047 0.12131821 0.36573982 -0.10217722 -0.22628596 -0.1262885 0.13997398 0.18670572
-0.1376404 -0.0435612 -0.120598555 0.13002717 0.17995176 0.11768269 0.18083473 -0.20307128
0.2093071 0.12390101 -0.17411676 -0.17063707 0.0677982 0.056846276 0.17366084 0.194667
-0.18954743 0.23396549 -0.22736791 -0.15850647 0.15017745 0.12605171 -0.21591143 -0.030544937
0.03629441 0.073405355 -0.23389636 0.22109471 -0.13817716 0.21242629 -0.3014867 -0.25804865
0.33218193 -0.21186666 -0.28744277 -0.117121994 -0.16291988 -0.06952486 -0.32999226 -0.20709145
0.21526822 0.06777077 0.07806881 0.2313903 0.11871532 -0.13945615 -0.31527358 -0.15817325
-0.22919953 -0.13009265 -0.015321992 -0.17996073 0.17553455 0.1890962 0.03853036 -0.18074459
0.14557831 0.27686808 0.24965079 0.10628813 0.31251258 -0.06328983 -0.22638544 0.13713834
-0.28136948 -0.15644246 -0.14658934 0.2212094 -0.17184278 0.151072 -0.30156597 -0.31054193
0.23093845 -0.085210346 0.009693403 0.17073165 -0.10728757 0.018516475 -0.06289932 -0.17268878
-0.18911228 -0.20034418 -0.08406958 0.16753682 0.13089581 -0.15865055 0.16217446 -0.12292356
-0.14242478 0.087597005 0.0455131 -0.12976271 0.0708569 -0.15485668 -0.31364584 0.1404846
0.12449003 0.2846207 -0.15256469 -0.14405672 -0.1480124 -0.15212385 -0.07185078 0.3492084
-0.01880204 0.12733802 0.14846763 0.23508115 0.08894003 -0.03678675 -0.14451754 0.054788776
-0.13775375 0.28642166 -0.25943723 0.10828635 0.09889506 -0.021552186 0.07895105 0.17728803
-0.14832617 0.32422113 0.26297453 0.33741298 -0.10106078 0.18148549 -0.12350411 -0.12480597
0.25873438 0.16304941 -0.19687435 -0.2801461 0.12418336 0.20299104 -0.13084625 0.20378289
0.13955863 0.26516733 0.09545804 -0.089886315 0.2933591 0.13246731 -0.30648208 -0.2504898
-0.16476208 -0.030603882 -0.22318566 0.036117706 0.19114521 0.0670111 0.12312972 -0.085185274
-0.23695312 -0.3747447 0.19336878 -0.10278906 0.09596844 -0.20977658 0.21784256 0.17042993
-0.014020573 0.27779615 -0.08950836 0.058480695 -0.38154224 0.20965116 0.25031435 0.20143275
-0.23692404 -0.13560332 0.028837513 0.15712465 -0.21601233 0.22314234 -0.0020443036 0.19767657
0.1581939 0.23772688 -0.22483258 0.2012034 0.051106516 -0.24025622 -0.2730773 -0.28037763
0.08065004 -0.030917885 0.07121698 0.0020864801 -0.15900949 0.24092162 0.28614607 -0.041175425
0.02710181 0.173851 -0.08608161 -0.15181051 0.133184 0.21495688 -0.0029317231 -0.007709089
0.24680434 -0.1240964 -0.2467913 0.13135435 0.21063825 0.18308057 -0.21869777 -0.14285406
0.17294288 0.08155221 -0.16223332 0.21689436 0.14579526 0.34045476 -0.010200205 0.16326822
-0.06697532 0.18120265 -0.18306987 0.1633586 -0.03437522 0.25435624 0.13097471 0.0960108

bias f4 [10]
00000000: 7511 aabc d01c 393e 1b55 893c 5cb4 42be
00000010: 23e9 73bc 84e0 b0bd 81b0 91be d087 7ebc
00000020: dbf5 873e 4bd1 0e3d
-0.020760277 0.18077397 0.016764214 -0.19014114 -0.014887127 -0.08636573 -0.28454974 -0.01553531
0.2655476 0.034867566
