part2-mnist/mnist_model_fully_connected.pt (torch, 905199 bytes, 8 tensors)

weight f4 [32, 1, 3, 3]
000000 37 79 d9 3e 95 7e c5 3e 34 f0 f6 be 9d ec 72 3e
       0.42475292 0.38573137 -0.48230135 0.23723073
000010 3a c0 fc be c3 ca cc be 4d f4 f2 be 27 fb dc be
       -0.49365407 -0.39998445 -0.47452012 -0.43160364
000020 9c 2a d4 3c 68 52 fb 3c a5 f0 3f bb be 5f 4b be
       0.025899224 0.030678943 -0.0029287722 -0.19860741
000030 b8 78 a7 3e fb 69 b1 be 20 31 97 be 75 f6 22 3d
       0.3270929 -0.3465117 -0.29529667 0.03978582
000040 cc 99 10 3e 13 c9 f8 be d7 9c ea bc ef 0d 02 3d
       0.14121169 -0.48590907 -0.02863924 0.03175157
000050 65 28 f8 3e 2f 4a c3 be b9 af c2 be a6 f9 84 be
       0.4846832 -0.38142535 -0.3802469 -0.25971717
000060 82 80 11 be f1 f7 51 be e7 08 92 be 1f 9b 51 3e
       -0.14209178 -0.20504738 -0.28522417 0.2046933
000070 2d 70 22 bf e9 1a 0a bf e7 43 c0 3e cd e0 37 3e
       -0.63452417 -0.5394731 0.37551805 0.17956848
000080 d3 b4 87 3e fd 8b b8 3e dc d6 33 3c f9 30 89 3e
       0.26505145 0.36044303 0.010976519 0.26795176
000090 6e b8 f5 3e 8c 5f a4 3e fd 13 03 bf 35 28 bf 3d
       0.4799227 0.32104146 -0.51202375 0.09333841
0000a0 e5 dd e5 be 72 a4 be bd 77 81 c0 3e 80 21 0d be
       -0.44895855 -0.09308709 0.37598774 -0.1378231
0000b0 86 95 f1 3d ae 9b fb 3c 74 c5 09 3e 0d bf 3f 3c
       0.117960975 0.030713882 0.13454229 0.011703265
0000c0 f4 f3 21 3e 46 ec 11 3e b5 f5 b7 3d ba 40 a2 be
       0.15815717 0.14250287 0.08982412 -0.31690007
0000d0 a3 26 2c 3d 53 78 e3 3b f8 51 29 bd 30 dc b2 3d
       0.042029034 0.006941834 -0.041337937 0.08733404
0000e0 0b 27 44 be dc 0f 87 bd 36 2e b0 bd f4 99 a7 bd
       -0.19155519 -0.06594822 -0.08602564 -0.08183661
0000f0 b0 41 89 be 2f 83 96 be 7c a0 a9 bd e3 c0 d9 be
       -0.26807928 -0.2939696 -0.08282563 -0.42529973
000100 3d 64 60 bd 6a 04 65 be e4 db 63 be 84 a8 08 bf
       -0.054783095 -0.22364965 -0.2225185 -0.53382134
000110 68 55 82 bd 2e 00 2d 3f ee 9f c8 3e ab ed 0a 3e
       -0.06363946 0.675784 0.39184517 0.13567226
000120 e8 64 7c be 0f c2 7b 3d 5f 54 90 be b6 af 23 3e
       -0.24647868 0.061464366 -0.2818937 0.15984997
000130 3f 1e ec be e2 a3 9a be 2f 56 aa be 04 bf 1a be
       -0.46116826 -0.30203158 -0.33268878 -0.15111929
000140 c1 4a e1 3e c2 5b bc 3c d9 b3 42 3d 76 ae 0d be
       0.44002345 0.022992972 0.047534797 -0.13836083
000150 56 8e a1 3e a7 41 f5 be ea 78 1f bf 44 04 da 3d
       0.31553906 -0.4790165 -0.62293875 0.10645345
000160 fd 9e 23 3f cb 22 9a 3e 04 5b 4b 3e 01 b7 49 3f
       0.6391447 0.3010467 0.19858938 0.78794867
000170 1e 34 43 3f 46 c2 2b bf a8 8b ee be 6f aa 86 3e
       0.762514 -0.6709331 -0.46590924 0.26301906
000180 9a 7a d3 be 67 71 26 bf d5 51 1b be 32 9c 44 bf
       -0.41304475 -0.6501679 -0.15167935 -0.76800835
000190 83 59 a2 3e 9a b2 9f 3e 3b e8 12 be 9b f0 6a 3f
       0.31708917 0.3119095 -0.14346401 0.91773385
0001a0 9d 08 0c be 02 19 c0 3e 0b ca 13 3b fa c7 0a bf
       -0.1367516 0.3751908 0.0022550847 -0.5421139
0001b0 4e f9 5d be f8 ce 36 be 8d 66 d5 3e a2 d5 6a 3e
       -0.21677133 -0.1785239 0.41679803 0.22933057
0001c0 7e ca f5 3e 2a 03 9d 3e 57 b2 9b 3e 6e 47 4b bc
       0.48006052 0.30666476 0.304095 -0.012407167
0001d0 86 90 93 be fe dc 95 3d 5f b2 05 bf fb 6a d3 bd
       -0.288212 0.073175415 -0.522253 -0.10323139
0001e0 50 e6 2b bf b6 12 39 be bd d7 0e 3f 78 ca 57 be
       -0.67148304 -0.18073544 0.5579794 -0.2107333
0001f0 05 fc 11 3f 08 16 fa 3e 02 5d bb bd 2d 9e a7 be
       0.57025176 0.48844934 -0.09148599 -0.32737866
000200 3f 3e 6a be 83 09 86 3e 28 79 8d 3d 89 e4 8e 3e
       -0.22875308 0.26179132 0.06907874 0.27908733
000210 76 80 83 3c d0 9b f9 3a 7b 75 76 3e 49 32 05 bd
       0.016052466 0.0019043628 0.24068253 -0.03251866
000220 69 96 cc 3e 15 b5 b8 3e 26 d1 ae be 63 10 b9 bd
       0.39958504 0.36075655 -0.34143943 -0.09036329
000230 9c c0 b0 be c1 b9 67 be ea 3c 94 be 26 84 6e 3e
       -0.3452195 -0.22629453 -0.28952724 0.23292598
000240 cb 6e 3c 3c 1c 73 d5 3e f4 35 24 3f ea 82 e2 3e
       0.0115010245 0.41689384 0.64144826 0.44240505
000250 93 f8 72 be ed cb 04 ba 8b 76 c1 be 30 48 e6 be
       -0.23727636 -0.00050657877 -0.37785754 -0.4497695
000260 3c 12 16 bf 40 02 e8 be d7 f8 ab be b5 46 13 bf
       -0.58621573 -0.45314217 -0.33588287 -0.57529765
000270 62 e6 9f be b7 9f 5b be dc 87 22 3c c8 6f 8e bd
       -0.31230456 -0.21447645 0.009920087 -0.06954914
000280 56 63 12 bd 52 fe 69 bc 46 d2 b3 3e 26 e4 9b bd
       -0.035739265 -0.014281826 0.35121363 -0.07611875
000290 6e 24 c8 3a 3f 69 6f 3e 11 8f 1b 3f 12 6e f0 3e
       0.0015269646 0.23379992 0.60765177 0.46958977
0002a0 16 ba 24 bf d6 04 41 bf e4 16 0a bf 5c a6 ec 3d
       -0.64346445 -0.75398004 -0.5394118 0.11555168
0002b0 4e a4 51 3d ae 85 99 be 79 33 45 be be fd a8 be
       0.051182084 -0.29984802 -0.19257917 -0.3300609
0002c0 0c c4 a7 3e dd f1 d7 3d 6f ee 7b be 2a b0 db 3d
       0.3276676 0.10544179 -0.24602674 0.1072696
0002d0 6f 6a 9c 3e fa 09 cd 3d 01 c4 79 bd de 50 28 bf
       0.30549952 0.100116685 -0.06097794 -0.65748394
0002e0 13 68 0a bf 63 57 11 bf ae ef c0 bd 43 9d 3c bd
       -0.54065055 -0.56773967 -0.09420715 -0.046048414
0002f0 79 58 dc 3d b5 20 6b 3c e9 06 0b bf cb ec a9 be
       0.10759062 0.01435106 -0.5430742 -0.3318847
000300 6b 49 bd bd e2 6e 03 3e ca 8f ca 3e fe 26 cd 3e
       -0.09242519 0.12835267 0.39562827 0.4006881
000310 95 77 59 3e c1 ad df bd 39 d4 de 3e ff b2 13 3f
       0.21237023 -0.10921813 0.43521288 0.57695
000320 f2 8b 4a 3c 7c 52 c1 bd cc 24 48 bc 6b 47 ec 3e
       0.012362467 -0.09439561 -0.012215804 0.46148238
000330 34 40 e5 be 37 d2 12 bf 2f b3 c7 be 90 31 91 3e
       -0.44775546 -0.5735201 -0.39003894 0.28358126
000340 00 c2 ff bd 4c ee 21 3d d0 42 cd 3e 45 7d 7d 3d
       -0.124881744 0.0395339 0.40090036 0.061887044
000350 d8 33 b9 be 81 d7 83 be ea 35 8b be 27 08 75 be
       -0.36172366 -0.25750354 -0.2718957 -0.23928891
000360 bc c6 8a be 72 a8 b5 3e ff c2 a5 3d 1e 5e aa 3e
       -0.27104747 0.35480076 0.08093833 0.3327493
000370 18 0a 2b 3e 9b 6c cd 3e 3b 3a 2b bf 85 81 90 be
       0.16703069 0.40121922 -0.6688573 -0.28223816
000380 0c 68 35 3e 3f 06 91 3c ba 7b 00 bd af a1 aa 3e
       0.17715472 0.017703174 -0.031367995 0.3332648
000390 91 04 89 3e 57 79 2c bd 3c 44 a2 3e 20 46 99 3d
       0.26761296 -0.042107906 0.31692684 0.074840784
0003a0 3a 2e de 3d fb 7e 6b 3e e8 a5 a6 be 6a 23 54 3d
       0.10848661 0.22997658 -0.3254845 0.051791586
0003b0 df fb 6e bd 54 f0 a3 be 6f c6 37 be 30 05 c8 bd
       -0.05834567 -0.32019293 -0.1794679 -0.097666144
0003c0 dd d0 7a 3e db af 8f be 8e cc 0f be f9 8d a4 3e
       0.24493738 -0.28063855 -0.14042875 0.32139567
0003d0 c7 ec 69 be 6e e5 03 bf b8 d3 2d 3f 6e 09 0a bd
       -0.2284423 -0.51521957 0.6790118 -0.0337004
0003e0 a5 d0 2f bf 68 0d d3 3d fb 6e d1 3e 38 2c 9a be
       -0.6867774 0.103052914 0.40904984 -0.3011186
0003f0 38 e1 94 be f6 99 ad 3e dd bd 66 3e 03 d0 b9 3e
       -0.29078078 0.33906525 0.22533365 0.36291513

bias f4 [32]
000000 3e 00 4c 3e 1a 2f 28 3e 35 14 54 3e 5b f9 9d be
       0.19921967 0.16424218 0.20710833 -0.30854306
000010 c1 22 4b be fa e2 8f be 1e 0c 2d be fb e3 f1 bc
       -0.19837476 -0.28102857 -0.16899154 -0.029527655
000020 b6 67 55 3e d6 cc 2d be ce bd 86 bd 42 49 8d be
       0.20840344 -0.1697267 -0.06579171 -0.27594954
000030 d0 d6 ac be d4 70 ea bb d1 d5 63 be 10 21 5e bd
       -0.3375764 -0.0071545634 -0.22249533 -0.05423075
000040 cd e4 6d bc 3f 08 e2 3e 68 01 48 bd 95 bf 6a bd
       -0.014519882 0.44146916 -0.048829466 -0.057311613
000050 69 38 9e 3e 32 d8 e8 bd 41 3f f3 bd 69 9c ff bc
       0.30902413 -0.11369361 -0.11877299 -0.031202512
000060 50 c5 a0 bc 12 08 97 be b7 c2 40 3e dc 46 a4 bd
       -0.019625336 -0.29498345 0.18824278 -0.08021328
000070 01 17 37 be 13 6c dc be cf 41 3c be 7e 5c 47 be
       -0.17879869 -0.43051204 -0.18384479 -0.19468877

weight f4 [64, 32, 3, 3]
000000 60 8f 62 bc 04 3b 4f 3d 3f 21 9a 3d 5a 43 20 bd
       -0.013828129 0.05059339 0.075258724 -0.03912673
000010 58 93 05 bd 74 d7 ec 3c a6 9e 94 bd 30 4e 2b bd
       -0.03261122 0.02891133 -0.07256822 -0.041822612
000020 14 4d 75 bd 01 fc 03 bd 9d 6c 9b 3c 93 3c 5d bc
       -0.05988796 -0.03222275 0.01897269 -0.013503212
000030 f9 ba e7 bc 79 6e 2c 3c c6 69 ca bc 7e b4 a2 3c
       -0.028287398 0.010524386 -0.02470864 0.019861456
000040 f1 08 b7 bc 4b 00 3a 3b 61 14 df bc 59 63 f1 bc
       -0.02234313 0.0028381522 -0.027231397 -0.029466318
000050 1e 10 b9 bc 77 61 b6 bc 7b 93 27 3d 28 6f 1c bd
       -0.022590693 -0.022263272 0.040912133 -0.038191944
000060 f8 d6 7b bd 0d cc e3 3c 41 64 2f bd 32 8c 4e bd
       -0.061484307 0.02780726 -0.04282022 -0.05042667
000070 7e 16 be bd 79 54 85 bd 64 04 cd 3d 26 8d 0b 3c
       -0.09281634 -0.065102525 0.10010603 0.008517539
000080 87 c2 f3 bc b7 1e db 3b 40 28 68 3d f3 84 2b 3c
       -0.029755844 0.006687011 0.05667901 0.010468709
000090 51 31 82 3d ae bd ad bc 84 c1 48 bd 4d 1c 68 bd
       0.063570626 -0.02120861 -0.049012676 -0.056667615
0000a0 0d 94 a2 bd e6 12 e5 3c 12 e0 8a 3d 18 0f b6 bc
       -0.07938395 0.027963113 0.06781019 -0.022223994
0000b0 67 38 5a 3c c4 55 ed ba 46 c8 a1 3c 6b 44 75 3c
       0.013319111 -0.0018107225 0.019748818 0.014969925
0000c0 a9 9f 2d bd bb 3c 03 bc 4f 32 a3 bb b4 72 46 3d
       -0.042388592 -0.008010085 -0.0049803625 0.048449233
0000d0 0d 97 02 3d 98 21 7f bc 7a 21 89 bc 57 bb 15 3d
       0.031882335 -0.015571974 -0.016739596 0.036555614
0000e0 e4 ea d0 bc 86 d7 d1 bc 2c bf 5a 3c 68 d3 8f bb
       -0.02550263 -0.025615465 0.013351243 -0.0043892153
0000f0 1c 67 1f bd 2b 5b 49 3d 29 07 19 bd 39 48 a1 bd
       -0.038916692 0.04915921 -0.037360344 -0.078751035
000100 c2 e0 28 bd 63 ef d2 bc f0 55 89 3d 94 77 29 3d
       -0.04122997 -0.025748914 0.067058444 0.041373804
000110 f7 66 7b 3d 52 3c 3f bc 9f 9a 31 bd 66 90 7d bc
       0.06137749 -0.011672096 -0.04336035 -0.015476322
000120 13 3e c2 bb 8f 11 68 bc 44 39 4c 3c ba 64 1d 3d
       -0.00592781 -0.014164343 0.012464825 0.03842614
000130 bb 8e c1 bc 03 98 40 3d 58 49 0f bd 21 3e e1 3c
       -0.02362763 0.04701997 -0.034982055 0.027495446
000140 66 8d 36 bd 7d e3 8c bc 09 91 f1 3c 1e 64 36 3c
       -0.04456844 -0.017198319 0.029488103 0.011132268
000150 79 00 15 3c 29 37 c0 bb 3a 31 b7 3c fe e5 8f bd
       0.009094351 -0.0058659506 0.02236234 -0.070262894
000160 3a 78 ea bc 2a 46 6f bd 65 40 2f 3e 8f a2 19 3d
       -0.028621782 -0.058416523 0.17114408 0.037508544
000170 a2 a7 01 bd 83 79 de 3b 22 5e 2f ba 02 92 ae bd
       -0.031654008 0.0067893877 -0.0006689747 -0.085239425
000180 ff c7 f6 38 ef cf a2 bc 89 af 83 3d f2 f4 9b bd
       0.00011767446 -0.019874541 0.06429965 -0.07615079
000190 cb 4d b5 bc 49 f3 26 3d ff 3d 3a bc 1f a4 33 3b
       -0.022131821 0.04075936 -0.01136732 0.0027411056
0001a0 aa 20 ae bd e7 11 55 3c 52 55 cf bd 8c f9 6f 3d
       -0.08502324 0.0130047565 -0.101236954 0.058587596
0001b0 c8 9f 1c 3d db 7e 88 bd 00 c1 9f bd 75 b5 50 3c
       0.038238317 -0.06664821 -0.07800484 0.012738575
0001c0 49 76 23 bc 91 8b 1f 3c 54 7a 21 3c f3 48 a7 bd
       -0.009976932 0.009737865 0.009855825 -0.08168211
0001d0 7d e3 80 bd 56 b2 09 bd 1d 77 1c bc 2c be 1a 3c
       -0.0629339 -0.03361734 -0.009549883 0.009444755
0001e0 09 5a 97 bc 9d f0 c6 3b 65 76 b4 3c c0 f7 5b bd
       -0.01847555 0.006071164 0.022029111 -0.05370307
0001f0 8a da fe bd d5 d7 72 3b c3 fb 8f bc 77 7d 29 bd
       -0.12444027 0.0037054915 -0.017576104 -0.04137942
000200 2b 26 28 3d e5 b7 01 bd 31 ee 2b 3d ed 91 0a 3c
       0.041052025 -0.031669516 0.041975204 0.008457643
000210 ec 68 3a 3d 4c 5d d4 3c 94 f3 00 3c d6 96 85 3d
       0.045510218 0.025923394 0.007870574 0.0652291
000220 94 38 cd bc 75 74 3d 3d e7 64 60 3c ee 65 7b bd
       -0.025051393 0.04625364 0.013695932 -0.061376505
000230 4c 34 34 bd 1c 90 0f bd c3 c3 33 bd 75 c4 89 3d
       -0.043995187 -0.035049543 -0.043887865 0.06726924
000240 1b 7f d3 3d e4 e5 25 3d 75 c9 0b bc d3 a8 75 bd
       0.10326978 0.040502444 -0.008531918 -0.059975456
000250 86 ef 86 bd f2 38 27 bd 24 08 73 bd a2 a7 04 bb
       -0.06588654 -0.04082579 -0.059333935 -0.0020241519
000260 93 e7 4d 3c ec 59 0d 3c de c0 77 3d 66 15 09 3d
       0.012567419 0.008627396 0.060486667 0.033467673
000270 0f 9a a7 bc d1 a3 46 3d 21 98 b5 3c 71 5f d5 3b
       -0.020459203 0.04849607 0.022167267 0.0065116216
000280 ee 02 b4 3c c6 a5 89 bd d1 13 9c 3d 08 09 30 bc
       0.021974053 -0.06721072 0.07620967 -0.010744341
000290 95 fc 62 bd 05 c6 b0 bd 86 f9 87 bd 1c a8 7f 3b
       -0.055416662 -0.08631519 -0.0663939 0.0039010113
0002a0 4d 6d e5 bc 37 73 2d bd 2a af f7 bc fa 1b 59 bd
       -0.02800622 -0.042346206 -0.030234892 -0.053005196
0002b0 55 5f f2 bc e7 dc 14 3d 35 39 11 3d 57 c4 25 3d
       -0.029586473 0.03634348 0.035454948 0.040470447
0002c0 7d 77 ea 3c d1 53 59 3d 10 9f 0b 3d ce 18 42 bc
       0.02862143 0.05305845 0.03408724 -0.011846734
0002d0 43 85 1d 3d 62 11 d0 3d 35 2d 0f 3d 78 81 c8 3c
       0.038457166 0.101595655 0.034955222 0.024475798
0002e0 f1 8a 3f bc 21 f1 19 3d 22 eb 27 bd 93 b9 f8 3c
       -0.011690841 0.037583474 -0.040995724 0.030361926
0002f0 5b ad 8c bd 09 26 2c bd 03 45 d6 bc ab 64 27 bd
       -0.068690024 -0.04202846 -0.026155954 -0.04086749
000300 05 b3 11 bb ea 5e 2f bd 56 c9 52 bd 27 7b 70 bd
       -0.0022231948 -0.042815126 -0.05146154 -0.058711197
000310 71 f1 2e bd 53 06 a4 bc 02 e4 63 3d c6 56 47 3c
       -0.042710725 -0.020022547 0.055637367 0.0121666845
000320 e7 30 75 bc 88 1c be bd 39 fb 51 bd b2 5f 14 bd
       -0.0149652725 -0.09282786 -0.051264975 -0.036224075
000330 01 b0 84 3c 31 65 11 3d 3a de d9 bc eb c3 57 bc
       0.016197206 0.035496894 -0.026595224 -0.013169269
000340 f9 2e 98 3c 84 1c 88 bc 06 59 e0 bc 6c 78 46 bc
       0.018577086 -0.01661516 -0.0273862 -0.012113672
000350 d6 1b 82 3c 0d d1 3b 3d a3 71 c0 3c ea 9f 76 bd
       0.015882414 0.045853663 0.023491686 -0.0602111
000360 e1 b3 b8 3d 53 2c f5 bb a7 06 6b bd c9 64 9d bd
       0.09018684 -0.0074820905 -0.05737939 -0.07685239
000370 e6 47 33 bc bb 39 9d bc d4 c7 89 3d 4a 30 a2 bd
       -0.010942435 -0.019192567 0.06727567 -0.07919367
000380 89 fa db 3d 48 bc aa bd dc 97 bd bd b7 50 93 bd
       0.10741145 -0.08336693 -0.092574805 -0.071931295
000390 bd f0 a5 bd fe b1 ed bd 82 91 62 bc fb 4e 5a 3d
       -0.08102558 -0.11606215 -0.013828637 0.053297978
0003a0 cd 69 62 bd c7 90 44 3d e3 a1 b4 3c 2a ea 1f 3d
       -0.05527668 0.047989633 0.02204985 0.039041676
0003b0 cf 6a f1 3c a0 83 9d bc ad 9e 31 bc c9 9b 46 bd
       0.029469876 -0.019227803 -0.010841054 -0.048488412
0003c0 a8 46 42 bd 94 5c 0f 3d 6d 97 67 bd 24 78 43 bd
       -0.047430664 0.0350004 -0.056540895 -0.047721997
0003d0 73 1d 83 bd bf f1 a6 bc 7b 11 b4 bc c1 b3 53 3c
       -0.06402101 -0.020378945 -0.021980992 0.012921275
0003e0 bb fc 1a bd 15 1d aa bb 75 46 51 3d ca 91 ad bc
       -0.03783868 -0.005191455 0.051092584 -0.021187682
0003f0 47 a0 81 3d 74 6b 22 3d 7b 61 b7 bc 4c ff 8c bc
       0.063293986 0.039653257 -0.02238535 -0.017211579

bias f4 [64]
000000 da 18 0e bd 7d 6e 0e be 33 0a bd b8 9b a8 7f bd
       -0.03469167 -0.13909335 -9.014122e-05 -0.062416654
000010 4b 6d bf bd 25 e3 c9 3c 6f 9f 84 bd 14 f7 82 bd
       -0.09347018 0.024644444 -0.06475722 -0.06394783
000020 de c8 0e be 13 04 07 bd 9f 2d a2 bd b1 cc c2 bd
       -0.13943812 -0.03296287 -0.07918858 -0.09511698
000030 2c a0 64 bd f6 ee c2 bd 25 a3 a6 bc 97 13 3e bd
       -0.055816814 -0.095182344 -0.020341465 -0.0464054
000040 7a ba 15 bd 8b 06 30 bb 33 38 ac bd fe 5b d1 bd
       -0.03655479 -0.0026859369 -0.08409157 -0.10222624
000050 92 de 5c bd bb 58 ce bd 1a 30 7a bd 0d 05 1f be
       -0.053923197 -0.10075518 -0.06108103 -0.1552927
000060 a9 92 4b bd df 38 cd bc e1 4c b6 bc 82 88 20 bc
       -0.049700413 -0.025051532 -0.022253456 -0.009798171
000070 7a 4a 51 be 8a 6c dd bd a3 25 90 bd 41 be 08 bd
       -0.20438567 -0.10811718 -0.07038429 -0.033384565
000080 88 ed 66 bd 90 38 c3 bc e5 b0 27 be 66 71 af 3c
       -0.05637887 -0.023830682 -0.16376074 0.021416377
000090 1e d6 9d bd ae f3 01 bd 47 73 01 bd 43 1f 4b bc
       -0.07706855 -0.03172653 -0.031604078 -0.01239759
0000a0 07 52 90 be 1b 1c 23 be 1f 07 76 bd 73 59 0e be
       -0.28187582 -0.1592869 -0.060065385 -0.1390131
0000b0 c6 5f e5 bd 5e 51 f6 bd d7 1d 33 bd 82 97 5b 3c
       -0.11199908 -0.12027238 -0.04372963 0.0134028215
0000c0 df bc 00 be fc 8f 02 3d c6 24 8a bd a6 3d 38 be
       -0.12572049 0.031875595 -0.06745295 -0.17992267
0000d0 df ca eb bd bc 0c 34 be 87 d1 0d bc 00 20 cd bc
       -0.11513304 -0.17582983 -0.008655912 -0.025039673
0000e0 50 be 77 bd 19 a1 8a bc 8a 3e 74 bd 38 01 59 bc
       -0.06048423 -0.01692252 -0.059629954 -0.0132449195
0000f0 2f 06 bc bd 8a 24 02 be e0 d8 6b be f7 4f e1 bd
       -0.09180867 -0.12709251 -0.2303195 -0.1100158

weight f4 [128, 1600]
000000 84 4e 8f bc f0 e1 0c 3d f5 28 97 3c 5b a8 f1 3c
       -0.017493494 0.03439516 0.018452147 0.029499223
000010 d3 d3 c1 3c 7d 75 98 3c 56 f8 74 bc 4d 56 19 bd
       0.023660576 0.01861071 -0.014951786 -0.03743582
000020 c1 0b 17 ba 3d b9 e6 bc cf 12 3b 3c 21 66 f3 bc
       -0.00057619443 -0.0281645 0.011418059 -0.029711785
000030 9a 87 0b bc e1 8d 27 bc eb 0e be bb 65 d5 be 3c
       -0.008516217 -0.010226698 -0.005800118 0.023295114
000040 e1 9d 11 bd 8a 3b 64 bb 98 91 4c 3c ae aa 09 3d
       -0.035550956 -0.0034825527 0.012485884 0.03361004
000050 1a f9 fe bb 7b 57 42 3c b7 dd b5 3c 66 db 6f bc
       -0.00778116 0.011861677 0.022200448 -0.014639711
000060 e8 d0 2a 3d 90 a2 f1 3c f2 82 b2 b9 aa d7 3c 3b
       0.041703135 0.029496461 -0.00034048368 0.002881507
000070 81 48 ce 3c df f8 2f 3c 7c 35 54 bd bd d6 fa 3b
       0.025181057 0.010740488 -0.05180882 0.0076549933
000080 03 c0 5e bc 4c 51 27 bc 4b 79 17 3d a3 dd 3a bd
       -0.013595584 -0.010212254 0.03698091 -0.045621525
000090 53 ad bf 3b d9 be 74 3c 26 b5 31 3d 9b 34 44 3c
       0.0058495193 0.01493808 0.043385647 0.011975433
0000a0 7c 58 61 bd 3c 53 ac bc 70 ec 70 bb c0 bb 21 3d
       -0.055016026 -0.021035783 -0.0036762021 0.039485693
0000b0 5d e9 fd b9 96 ef 80 bc b6 14 da bb 6d ec 26 bb
       -0.0004842979 -0.015739243 -0.006655301 -0.002547051
0000c0 56 07 aa 3b 51 40 10 3d 3d a6 77 bc fd a8 bd 3c
       0.005188863 0.035217587 -0.015115318 0.023151869
0000d0 63 12 15 bb db 30 e8 bc 6a 4f 9e 3b 2a 26 00 3d
       -0.0022746555 -0.028343609 0.0048312442 0.031286396
0000e0 11 a5 e4 3c 5f 5e 00 bd 2e c5 49 bd 6c a2 a4 bc
       0.027910741 -0.03134 -0.04926031 -0.02009698
0000f0 b2 f0 1b 3d 78 e0 64 bc fe 91 25 3d 96 ce a4 bc
       0.03807134 -0.013969533 0.040422432 -0.02011804
000100 63 b7 86 bd 8e 73 91 ba 92 df b8 3c 4a 3e d5 3c
       -0.06577947 -0.001109706 0.022567544 0.026030678
000110 02 09 0f bd 49 e6 17 bc 60 36 d9 3c 51 d4 8f bc
       -0.0349207 -0.009271213 0.026515186 -0.017557295
000120 c3 55 3e bd 95 14 2a 3b 64 24 ab b9 9d b7 ba 3b
       -0.046468507 0.002595221 -0.00032642775 0.005698158
000130 5a ea e4 3b 73 c8 18 bd 98 a6 49 bd 70 a0 23 bd
       0.0069859447 -0.03730054 -0.04923114 -0.039947927
000140 6c 2e a0 bd f2 25 14 bd 7c 0a 03 be fd 56 4d 3d
       -0.07821354 -0.036169 -0.12796968 0.050131787
000150 50 0c 9b 3d e1 2a 87 bd b1 f2 c9 bd b6 2d 41 bc
       0.07570708 -0.065999754 -0.09860743 -0.0117906835
000160 63 5f b5 3d e6 55 69 3d 33 9c 6a bd a1 d2 94 bd
       0.08856084 0.056966685 -0.05727787 -0.07266737
000170 12 8d a1 bc c4 35 74 3d 2a 4c c0 3d 06 6a 07 3c
       -0.019720588 0.059621587 0.09389527 0.008265024
000180 86 79 a5 bc 23 e9 3a 3c 78 ac 94 3d e1 bc 26 bc
       -0.020199548 0.011408123 0.07259458 -0.010176868
000190 1b c6 6d 3c 22 16 03 3c 9a 45 8c 3b 3c 38 4a bd
       0.014512564 0.008000882 0.004280758 -0.049370036
0001a0 e1 20 24 bd 1b 16 26 3d ab 66 62 3a 73 d6 2f bd
       -0.04007042 0.040548425 0.00086365145 -0.042929124
0001b0 12 75 08 bd 69 67 92 ba c6 32 13 3d 7c 4b 27 3d
       -0.033314772 -0.0011169735 0.035937093 0.040843472
0001c0 b3 28 39 3d 40 55 3a bd a1 ec 85 bc d9 82 18 3d
       0.04520483 -0.045491457 -0.016348185 0.03723416
0001d0 19 86 82 3d 07 7b f7 3b 73 38 2f 3c 00 a1 7b bb
       0.06373233 0.007552508 0.010694611 -0.0038395524
0001e0 8e 32 45 3d 9c 06 5e 3c a6 cb 6f 3c 0b 47 07 3c
       0.048143916 0.0135513805 0.014635956 0.008256684
0001f0 46 a1 17 bb df 06 a6 bc 16 cb c6 3c ad be 8f 3c
       -0.0023136898 -0.020266948 0.02426676 0.017546976
000200 66 bc bc 3b 12 0c 9c 3b 4c ef 05 3c c2 e1 af 3c
       0.0057597635 0.004762181 0.008174729 0.021469954
000210 a1 ca 98 b8 e2 34 3e 3b 62 d1 77 3c c5 0d cf 3b
       -7.2856674e-05 0.002902322 0.015125604 0.00631878
000220 ed 64 76 3a 31 78 af 3c 9f e1 a4 bc ad 4b ba bc
       0.00093991944 0.021419616 -0.020127116 -0.022741163
000230 20 97 cc 3c f1 da 8e 3c 6b d1 d4 3c e0 76 d3 ba
       0.024974406 0.017438384 0.025978765 -0.001613345
000240 38 64 a6 3c 7c e9 99 3c 68 53 09 3c 50 99 98 3c
       0.02031146 0.018788092 0.008381702 0.018627793
000250 be 78 21 ba 16 29 8f bc ab 7d d3 3c ba 22 48 3d
       -0.00061596546 -0.017475646 0.02581676 0.048861243
000260 63 13 98 bc c6 ca 23 bc ea 01 1d 3c f9 fb a8 3c
       -0.018563932 -0.009997075 0.009582976 0.020627962
000270 50 8c ba 3c 15 b8 eb bc 4f 35 ad bc 26 8f 91 3c
       0.022771984 -0.0287743 -0.021143584 0.017768454
000280 79 d8 88 3c 41 ae 0c 3c ef ae 3f bc 5a ce 44 bd
       0.016704785 0.008586467 -0.011699422 -0.048048355
000290 7c 79 5c bd 53 cc f7 bb de e1 80 3b c3 0c f3 3c
       -0.053826794 -0.007562199 0.0039331755 0.029669171
0002a0 90 b5 50 bc 4c 11 8b bc 59 22 91 b9 9f a9 3f bc
       -0.0127386 -0.016976021 -0.00027682146 -0.011698156
0002b0 33 5d 03 bc 05 8b 7a 3c 5d 4a 7f bc cb cf d6 3c
       -0.008017826 0.015291934 -0.015581694 0.02622213
0002c0 44 f4 14 bc c7 df b6 3c 5e e6 bb bc 62 d1 d8 bb
       -0.009091441 0.022323502 -0.022936996 -0.0066167573
0002d0 c3 14 2b bc fa f5 fe bb b4 35 86 bb ae c7 b7 bc
       -0.010441962 -0.0077807875 -0.0040957574 -0.022434082
0002e0 f0 35 ab bb 44 d7 ab 3c 55 6e ae bc 26 72 1e 3c
       -0.0052249357 0.02097667 -0.021292845 0.00967077
0002f0 b7 49 04 bd 7d 1d 58 3c f4 35 62 3c ef ff 93 3c
       -0.032296862 0.013190624 0.013806809 0.018066375
000300 01 9b 9a 3b be 48 b1 bb 00 ae d8 bb 6c d4 9d 3c
       0.004718185 -0.005410283 -0.0066125393 0.01926633
000310 74 f7 f3 3c 4f 18 2f bc ae 97 47 3c 9d a4 dc bb
       0.02978108 -0.010686948 0.012182159 -0.0067334906
000320 92 8e 1f bc 88 71 13 3d c1 0b 33 bd 09 da 9f bc
       -0.009738581 0.035996944 -0.04371238 -0.019513147
000330 4c 07 5b 3b 79 73 ba 3c 8a 5e 48 bd ec 9c d2 bc
       0.0033421097 0.02276014 -0.048918284 -0.025709592
000340 13 f4 77 bd 7b a8 40 bc 1f 97 c1 3b 1b 00 e8 3c
       -0.0605355 -0.011758919 0.0059079076 0.028320363
000350 2d 38 10 bc cc c0 2b 3d 08 6a 39 3c c6 94 ca 3c
       -0.008802456 0.041931912 0.011316784 0.024729144
000360 e6 38 32 bc f3 a0 51 3c b0 ef 31 3d 65 da 3f ba
       -0.010877823 0.012794721 0.043441474 -0.0007318615
000370 b8 f6 2f bb 4b cc 92 3c c1 cb 1b bc 12 14 3e bc
       -0.0026849937 0.01791968 -0.009509028 -0.011601465
000380 19 2d 4e bb 65 0b 09 3d b9 61 af 3b ab 82 dc ba
       -0.0031459986 0.033458132 0.0053522256 -0.001682361
000390 81 06 48 bd 19 3b c0 bc 53 19 94 3c 13 17 df 3c
       -0.048834328 -0.02346568 0.018078482 0.027232682
0003a0 7a 91 6e 3b 9c 3c e9 bc b7 2a 88 bd 73 0c 64 bc
       0.0036402629 -0.028471284 -0.06648772 -0.013918984
0003b0 50 ce 02 3d a4 83 dc 3c 78 92 52 3a 7a 11 bc bc
       0.031935036 0.02691824 0.000803269 -0.022957552
0003c0 38 40 22 3d 30 bd e6 3c 64 fc 97 3b 6b 81 07 3d
       0.039612025 0.028166384 0.0046382416 0.033082407
0003d0 06 e6 fe 3c b8 d6 84 bb 7b 50 4a 3a 6c 57 4e 3a
       0.031115543 -0.004053917 0.0007717681 0.0007871303
0003e0 9d 79 46 bc 5c aa 09 3c 6b 27 4c 3c 55 a3 45 3d
       -0.012113956 0.008402433 0.01246057 0.04825147
0003f0 d2 68 83 3c 24 52 85 3c 89 0e 7d 3c fb 54 ed 3b
       0.016041193 0.01627452 0.01544536 0.0072427965

bias f4 [128]
000000 f4 71 0e bd 1f 9a 5c 3d 7b 1e a0 bc df 9d 90 bd
       -0.034776643 0.05385792 -0.019545784 -0.070613615
000010 b6 28 e4 3d a8 2a 90 bd 2b f5 47 bd 4e ef a8 3d
       0.111405775 -0.07039386 -0.048817795 0.08248769
000020 8e f6 0c 3d 5f a2 40 bd 90 ff 06 bd c6 80 16 bd
       0.03441482 -0.04702985 -0.032958567 -0.0367439
000030 0a 22 bb bd 75 ac 18 bd 51 45 27 bd ca 43 34 bd
       -0.09137352 -0.037273843 -0.04083759 -0.04400996
000040 95 c1 a9 bc 86 93 58 3d d3 ac 19 3d 54 ea 2b 3d
       -0.02072219 0.052875064 0.037518334 0.04197152
000050 f4 9e 21 3d 02 a2 e1 bd 3a 0d e4 3c ad e1 bc ba
       0.03945823 -0.11017229 0.027838338 -0.0014410518
000060 8c 78 9a bc 2f ff 29 bd 29 52 aa 3c 7a 54 97 bd
       -0.01885631 -0.041503128 0.02079113 -0.073891595
000070 50 03 c6 bb ec cb 63 3c 5f 0a 8b bc 3c 2b 84 bb
       -0.0060428753 0.013903599 -0.016972719 -0.0040334743
000080 01 15 d2 3b 06 b8 1c bd 95 74 ae bd 3e 5c 91 bd
       0.0064111953 -0.038261436 -0.0851833 -0.07097672
000090 ef ed 68 3d 47 a7 95 3d 2a e2 f0 bc 96 44 56 3c
       0.056867536 0.07307296 -0.029404718 0.013077876
0000a0 77 09 3c bc 1c 96 de bc 21 8d 3b 3c 5f ff 43 3c
       -0.011476866 -0.027171187 0.011447222 0.011962741
0000b0 65 67 8e bd 9d b6 7a bd 4b 77 6c 3d 71 05 5b bd
       -0.06953315 -0.06120931 0.057730954 -0.053471986
0000c0 eb 66 10 bc 07 5c b7 3c 3c a6 84 bc 8e 67 80 3d
       -0.0088136 0.02238275 -0.016192548 0.062697515
0000d0 69 15 7d 3c 87 55 e5 3d 60 da b0 bc 16 13 9d 3d
       0.015446999 0.11197954 -0.021588504 0.07669656
0000e0 ec c6 56 bc fc e5 8d bc af b0 a5 3d f9 e0 c8 3c
       -0.01310895 -0.01732158 0.0809034 0.024521338
0000f0 b4 02 29 bd 6b 27 86 bc 59 31 3f 3d 1d 2c e4 bc
       -0.041262344 -0.016376218 0.04667792 -0.027853066
000100 e9 85 16 3d 9a ad a8 3d 72 b4 fc 3b 30 d1 af bd
       0.0367488 0.08236237 0.0077119404 -0.08584821
000110 87 19 3e bb 83 ee ad bd 9f 5a bc bc 6f a1 c2 bb
       -0.0029006915 -0.08492758 -0.02299243 -0.0059396545
000120 bc 82 dc bc 99 e2 7c 3c f7 27 a4 3c 46 b2 2a bd
       -0.026917808 0.0154348845 0.020038588 -0.04167392
000130 b9 cf d2 bc 8c 61 3f bb 20 e0 96 bc f3 c6 1e 3d
       -0.025733816 -0.002920243 -0.018417418 0.03876395
000140 72 7b 9b 3c 5f 01 64 bc 68 95 db 3b a0 54 53 3d
       0.018979762 -0.0139163425 0.00670116 0.051594377
000150 eb 24 79 bc df b1 c5 3c af 85 2c 3d ef ec 14 bd
       -0.015206556 0.024132667 0.042119678 -0.03635877
000160 d2 d8 8c bc 4a 30 8c bc c4 d3 92 3d df f6 8d 3d
       -0.017193232 -0.01711287 0.07169297 0.069318525
000170 f5 f5 8e 3d 00 66 5a 3c 7b a0 15 3d 50 b5 30 3c
       0.06980506 0.013329983 0.03653 0.010785416
000180 1f 9a 80 bd bc 2f 58 3d ba 08 8f 3d 62 eb e0 bc
       -0.06279396 0.052779898 0.06984086 -0.02745599
000190 f4 66 81 3d 2f a3 10 bd 58 8a d0 3d 07 80 21 bd
       0.06318465 -0.035311874 0.10182637 -0.039428737
0001a0 13 b2 ee 39 52 15 1c bd 62 39 08 3c dc 86 2a 3b
       0.00045527573 -0.03810627 0.008314462 0.0026020324
0001b0 7f 59 22 3d 41 0b 13 bd fb 00 9e 3c 7e f5 11 3d
       0.03963613 -0.035899404 0.019287577 0.03563451
0001c0 06 ec 78 3d ff 54 85 3d 20 f4 58 3d a1 47 12 bc
       0.060771964 0.06510352 0.05296719 -0.0089282105
0001d0 f0 55 2c bd f6 78 3a bc a8 71 ad 3c bd 92 ba 3c
       -0.042074144 -0.011381378 0.02117236 0.022775048
0001e0 93 cd af 3c a1 48 ad 3a f7 ec f0 3c 10 55 05 3d
       0.02146033 0.0013220498 0.029409869 0.032551825
0001f0 6a d6 e9 bc 76 c8 5f 3d db 22 1d 3a d6 b2 3d bd
       -0.028544623 0.054634534 0.00059942686 -0.04631313

weight f4 [10, 128]
000000 99 ed 50 be 62 da 0c be 47 d5 40 bd ec 3b be 3c
       -0.20403136 -0.13755181 -0.047078397 0.023221932
000010 b4 99 57 3e b0 b2 5c be d6 16 ef 3d 2f ad c7 bd
       0.21054727 -0.21552539 0.116742775 -0.09749829
000020 4b 3a 7d be af 53 55 be e3 fd 71 3e 73 de 00 3f
       -0.24729268 -0.20832704 0.23632006 0.5033943
000030 0e 76 0f 3e b8 64 ad 3d 4a 5d 31 3e f1 3a 84 be
       0.14009878 0.08466476 0.17320743 -0.2582622
000040 1b 73 58 be 98 e4 84 3e 2f 53 51 be cb 07 75 3e
       -0.21137659 0.25955653 -0.20441888 0.23928754
000050 63 a3 c7 bd 61 3b 0f be 23 4d 2b 3e 63 12 8d be
       -0.097479604 -0.13987495 0.16728644 -0.2755309
000060 39 11 76 3d ae 90 1d 3e 25 ab c8 3d ba 16 53 3e
       0.06007502 0.15387222 0.09798268 0.20614138
000070 2f b4 42 3e f0 c8 67 be 9b 2f 7b be d8 99 8b bd
       0.19014047 -0.22635245 -0.24529879 -0.06816453
000080 ac 2f d6 bd 6c 22 1b 3c e2 4d 16 be d9 bd e7 3d
       -0.104583114 0.009468656 -0.14678147 0.113155074
000090 2f 3e 9b 3e 39 39 45 3e 5f 5f 1d be e8 56 9e 3e
       0.3032088 0.1926011 -0.15368412 0.3092568
0000a0 f5 45 66 bd a6 1c 5f be 14 5a dc bd e0 6a 22 3e
       -0.05621906 -0.21788272 -0.107593685 0.15861082
0000b0 ee 17 3a 3e e8 d6 01 3e 05 9c 96 3e f0 89 54 3e
       0.18173191 0.12679636 0.29415908 0.20755744
0000c0 73 b6 66 be 40 84 4a be 20 3b 00 3e e9 37 0f 3e
       -0.22530536 -0.19777012 0.12522554 0.13986172
0000d0 0f 2d 9a be 5d 33 0d be 95 42 66 be df 34 b4 3e
       -0.30112502 -0.13789125 -0.22486337 0.35196587
0000e0 c7 60 2c 3e f7 1b b3 3d e9 cc e7 3d c4 2f 15 3e
       0.16833793 0.08745568 0.113183804 0.14569002
0000f0 9f 06 92 be dc b5 45 3e 42 66 09 be 0e 2a 98 3d
       -0.28520676 0.19307655 -0.13417915 0.07429896
000100 30 76 8b 3e b4 a4 81 bd 30 a3 47 be 0d 30 33 3e
       0.27238607 -0.06330243 -0.19495845 0.17498799
000110 9e 84 1d 3e ff 99 7f be 75 de 5c 3e 1d ed c4 be
       0.1538262 -0.24961089 0.21569236 -0.38462153
000120 42 9b 86 be aa 0b 75 3e b9 8b 10 be fc 07 9d 3e
       -0.26290327 0.2393023 -0.141158 0.30670154
000130 f8 c9 03 3d 93 4b 62 be 60 85 61 be cf 3e 96 3d
       0.032175034 -0.22099142 -0.22023535 0.073361985
000140 59 18 4a 3e dd b6 5c be 3f 61 cc 3c 72 17 3a 3e
       0.1973585 -0.21554132 0.024948714 0.18173006
000150 88 ee 23 3e a9 56 39 3e ac de 83 3e bd fa 12 be
       0.16008961 0.18099464 0.25755823 -0.14353462
000160 9a 66 77 3e dd d8 64 be 7f 92 84 3e 98 75 3f 3e
       0.24160233 -0.22348352 0.25893018 0.18697202
000170 5c f3 ec 3d 67 79 7a 3e da 8d ed 3d e9 cc 77 be
       0.115698546 0.24460374 0.11599322 -0.24199261
000180 d8 98 b9 3d b1 92 77 3e 89 26 90 3e 7d a8 b9 3e
       0.09062356 0.24177052 0.281544 0.3626136
000190 63 8f 29 3e ee 6d bf 3d a4 0b 29 3e 3a d9 0b 3e
       0.16558604 0.09347139 0.16508347 0.13657084
0001a0 fb 87 84 3e d3 c6 1c bd ce a6 6e 3e d6 0e 56 bd
       0.25884995 -0.03827555 0.23305818 -0.052260242
0001b0 cb 89 f4 bd d7 02 14 bd 2c de 22 be a7 fb 1d bd
       -0.119403444 -0.03613552 -0.15905064 -0.038570073
0001c0 04 b1 45 be 46 c5 f7 bd ea 1e ca bd c5 3a 16 3e
       -0.19305807 -0.12098174 -0.09869178 0.14670856
0001d0 84 e3 2d 3e 9d 63 39 3e dc dc 0b 3e 02 13 47 be
       0.16981322 0.18104406 0.1365847 -0.19440845
0001e0 2c 3f 45 3e 85 cd 9e be e5 df 24 be 2f b2 6f be
       0.1926238 -0.31016174 -0.16101034 -0.23407815
0001f0 11 44 80 bd 76 3b 01 3e fd 27 15 bd aa 6a fe bd
       -0.06262983 0.12620339 -0.03641509 -0.12422688
000200 06 50 3c bc 5a be 95 3e fa 0b 12 be a8 e8 62 be
       -0.011493688 0.2924679 -0.14262381 -0.22159064
000210 78 55 32 3e c0 0e fe bd 73 76 a7 be 9d 94 47 3e
       0.17415416 -0.12405157 -0.32707557 0.19490285
000220 4c d6 3a 3e 29 18 6f be 55 13 1f be ba 33 4d be
       0.1824581 -0.2334906 -0.15534718 -0.20039263
000230 7e 8d a5 be 94 fb 3e be 0c 5c 26 be 4f cf d9 bd
       -0.32334512 -0.18650657 -0.1624605 -0.10635244
000240 0c a0 a7 3c 16 b6 81 3e e2 45 12 3e 7d 85 b9 bc
       0.020462058 0.25334233 0.1428447 -0.02264666
000250 3f 03 f2 3d 36 e0 b8 bd 31 ef 87 3e 69 21 81 3d
       0.118170254 -0.0902714 0.26549676 0.063052006
000260 5f 82 60 be a9 1b b5 be 34 38 96 3e bc 56 ae be
       -0.21924733 -0.35372666 0.29339755 -0.34050548
000270 4f 54 e1 bd 68 c2 36 3e 58 ae 0c 3e 2e d9 1a 3d
       -0.11002409 0.17847598 0.13738382 0.037804775
000280 63 81 67 3e 2b 07 77 be 52 8a 20 be 2f 6c 7a be
       0.22607951 -0.24123828 -0.15677765 -0.24455331
000290 55 85 45 3e 55 e4 05 3e 94 18 8e 3d 80 27 30 bd
       0.19289143 0.13075383 0.06938282 -0.04300642
0002a0 a3 d7 24 3e 24 c8 fe bb 9b 07 11 3e d2 8e b0 bd
       0.16097884 -0.0077753235 0.14163058 -0.08620991
0002b0 98 56 9f be 8d a3 a2 be f1 4e 0f 3e b5 31 71 be
       -0.31120753 -0.31765404 0.13994958 -0.23554118
0002c0 a4 3f 66 bc 94 77 42 3e 69 33 58 be 8e a9 71 3e
       -0.014053259 0.18990928 -0.21113361 0.23599836
0002d0 f5 7a 59 3e 94 6c c8 3e cd 00 02 3c 70 d8 88 3e
       0.2123831 0.3914534 0.007934761 0.2672763
0002e0 0b 27 2b be 4c d4 32 be 7d 79 12 3e a3 5b 6c 3e
       -0.16714112 -0.17463797 0.14304157 0.23081832
0002f0 07 27 fc 3d 09 09 17 be 57 b5 b4 3d 2b 2e 91 bd
       0.123121314 -0.1474954 0.0882365 -0.07088884
000300 16 7d b7 3d 05 73 d4 3e 62 8c 4b 3e 23 d1 87 be
       0.08959405 0.41494003 0.1987777 -0.26526746
000310 1c 12 82 bd 06 b8 11 be 8c 79 36 be 50 0c 0b 3e
       -0.0635111 -0.14230356 -0.17819804 0.13578916
000320 19 6b d6 3d 21 5d 11 be 78 a6 8c 3e d4 11 19 be
       0.10469646 -0.14195682 0.27470756 -0.14948207
000330 e3 69 ec 3c 88 60 84 3e 33 1a ad bd 2f 19 6e bd
       0.028859084 0.25854897 -0.08452263 -0.058129486
000340 7d 1e d1 bd d6 ae f1 3d bb 97 76 3e 08 78 57 3e
       -0.10210893 0.118009254 0.24081318 0.21041882
000350 07 98 5e bd f4 1a b8 3b fd cc fb bc 8f bd 8e be
       -0.054344203 0.0056184474 -0.030737394 -0.27878997
000360 2f 56 c8 bd 01 26 2b be 6b 2b 50 3e d4 5f 04 3e
       -0.09782063 -0.16713716 0.20329063 0.1292718
000370 60 8b 09 3e f4 a4 39 3c 07 a8 5e 3d 98 48 01 3e
       0.13432074 0.011330832 0.054359462 0.12625349
000380 c4 de 71 be 91 41 83 3e 40 55 f4 3d ef 6c f1 bd
       -0.23620135 0.2563596 0.11930323 -0.117883556
000390 cd 1d 2f 3e 20 13 0a be 0d ca b0 3e c3 9d 5a be
       0.17101212 -0.13483858 0.34529153 -0.21349244
0003a0 52 5a b5 3d 0f 5c 67 3c 98 7c 2a be 62 ae 08 3e
       0.08855118 0.01412107 -0.16649091 0.13347772
0003b0 e5 9a 89 3e aa 7b 22 be e4 d7 92 3e ea 21 4b 3e
       0.26875988 -0.15867487 0.28680336 0.19837156
0003c0 2c ea 52 3e 97 31 89 3e 56 55 86 3e 69 fc 49 be
       0.20597142 0.26795647 0.2623698 -0.19725193
0003d0 63 aa ad be 21 4e 54 be 4e 4d 55 3d a0 10 ff 3d
       -0.33919057 -0.20732929 0.052075677 0.12454343
0003e0 da 86 60 3e 94 c3 b5 3d f6 d1 8e 3e 6e b6 fe 3d
       0.21926442 0.08875194 0.27894562 0.124371395
0003f0 9e 40 01 be 0b 9c 4a 3e 61 13 e1 bd c0 5e 8f be
       -0.12622306 0.19786088 -0.10990024 -0.28001976

bias f4 [10]
000000 22 30 f0 bc 9a a2 9a 3e 87 d8 c4 bd b5 d4 e0 bd
       -0.029319827 0.3020218 -0.09611612 -0.10978071
000010 dc 82 db bd 0f d9 a6 bd a3 ee a0 be ac 75 09 3d
       -0.10718319 -0.081468694 -0.31432065 0.033559486
000020 e3 6e 0e 3e 16 f0 8f bd
       0.13909487 -0.07028215
